…
rt torchfrom torch import nnfrom torch.autograd import Variablefrom torchvision.datasets import CIFAR10 # VGG 使用了很多层 3*3 的卷积 然后再使用一个最大池化层，这个模块被使用了很多次，定义一个 vgg 的 block 来实现这个结构def vgg_block(num_convs, in_channels, out_channels): # 定义第一层 net = [nn.Conv2d(in_channels, out_channels, kernel_size=3, padding=1), nn.ReLU(True)] # 定义后面很多层 for i in range(num_convs - 1): net.append(nn.Conv2d(out_channels, out_channels, kernel_size=3, padding=1)) net.append(nn.ReLU(True)) net.append(nn.MaxPool2d(2, 2)) # 定义池化层 return nn.Sequential(*net) # 打印模型，查看结构block_demo = vgg_block(3, 64, 128)block_demo Sequential( (0): Conv2d(64, 128, kernel_size=(3, 3), stride=(1, 1), padding=(1, 1)) (1): ReLU(inplace) (2): Conv2d(128, 128, kernel_size=(3, 3), stride=(1, 1), padding=(1, 1)) (3): ReLU(inplace) (4): Conv2d(128, 128, kernel_size=(3, 3), stride=(1, 1), padding=(1, 1)) (5): ReLU(inplace) (6): MaxPool2d(kernel_size=2, stride=2, padding=0, dilation=1, ceil_mode=False) ) # 定义输入为 (1， 64， 300， 300)input_demo = Variable(torch.zeros(1, 64, 300, 300))output_demo = block_demo(input_demo)print(output_demo.shape) torch.Size([1, 128, 150, 150]) 可以看到输出变成了(1, 128, 150, 150)， 可以看到经过这个vgg block， 输入大小减半， 通道数变成了128 # 定义一个函数对这个 vgg block 进行堆叠def vgg_stack(nums_convs, channels): net = [] for n, c in zip(nums_convs, channels): in_c = c[0] out_c = c[1] net.append(vgg_block(n, in_c, out_c)) return nn.Sequential(*net)# 定义一个简单的 VGG 结构vgg_net = vgg_stack((1, 1, 2, 2, 2), ((3, 64), (64, 128), (128, 256), (256, 512), (512, 512)))vgg_net Sequential( (0): Sequential( (0): Conv2d(3, 64, kernel_size=(3, 3), stride=(1, 1), padding=(1, 1)) (1): ReLU(inplace) (2): MaxPool2d(kernel_size=2, stride=2, padding=0, dilation=1, ceil_mode=False) ) (1): Sequential( (0): Conv2d(64, 128, kernel_size=(3, 3), stride=(1, 1), padding=(1, 1)) (1): ReLU(inplace) (2): MaxPool2d(kernel_size=2, stride=2, padding=0, dilation=1, ceil_mode=False) ) (2): Sequential( (0): Conv2d(128, 256, kernel_size=(3, 3), stride=(1, 1), padding=(1, 1)) (1): ReLU(inplace) (2): Conv2d(256, 256, kernel_size=(3, 3), stride=(1, 1), padding=(1, 1)) (3): ReLU(inplace) (4): MaxPool2d(kernel_size=2, stride=2, padding=0, dilation=1, ceil_mode=False) ) (3): Sequential( (0): Conv2d(256, 512, kernel_size=(3, 3), stride=(1, 1), padding=(1, 1)) (1): ReLU(inplace) (2): Conv2d(512, 512, kernel_size=(3, 3), stride=(1, 1), padding=(1, 1)) (3): ReLU(inplace) (4): MaxPool2d(kernel_size=2, stride=2, padding=0, dilation=1, ceil_mode=False) ) (4): Sequential( (0): Conv2d(512, 512, kernel_size=(3, 3), stride=(1, 1), padding=(1, 1)) (1): ReLU(inplace) (2): Conv2d(512, 512, kernel_size=(3, 3), stride=(1, 1), padding=(1, 1)) (3): ReLU(inplace) (4): MaxPool2d(kernel_size=2, stride=2, padding=0, dilation=1, ceil_mode=False) ) ) 上诉网络结构中有 5 个最大值池化，说明图片大小会减少 5 倍， 验证如下 test_x = Variable(torch.zeros(1, 3, 256, 256))test_y = vgg_net(test_x)print(test_y.shape) torch.Size([1, 512, 8, 8]) 可以看到图片大小减少了 $2^{5}$ 倍, 最后再加上几层全连接， 就能够得到我们想要的分类输出 # 定义 VGGNet 模型class VGGNet(nn.M
…
n.Sequential( nn.Conv2d(64, 64, 5, 1), nn.ReLU(True), ) # 第四层是 3*3 的池化， 步长为 2， 没有 padding self.max_pool2 = nn.MaxPool2d(3, 2) # 第五层是全连接层, 输入是 1204， 输出是 384 self.fc1 = nn.Sequential( nn.Linear(1024, 384), nn.ReLU(True) ) # 第六层是全连接层, 输入是 384, 输出是 192 self.fc2 = nn.Linear(384, 192) # 第七层是全连接层， 输入是 192， 输出是 10 self.fc3 = nn.Linear(192, 10) def forward(self, x): x = self.conv1(x) x = self.max_pool1(x) x = self.conv2(x) x = self.max_pool2(x) # 将矩阵拉平 x = x.view(x.shape[0], -1) x = self.fc1(x) x = self.fc2(x) x = self.fc3(x) return x alexnet = AlexNet() # 查看网络结构alexnet AlexNet( (conv1): Sequential( (0): Conv2d(3, 64, kernel_size=(5, 5), stride=(1, 1)) (1): ReLU(inplace) ) (max_pool1): MaxPool2d(kernel_size=3, stride=2, padding=0, dilation=1, ceil_mode=False) (conv2): Sequential( (0): Conv2d(64, 64, kernel_size=(5, 5), stride=(1, 1)) (1): ReLU(inplace) ) (max_pool2): MaxPool2d(kernel_size=3, stride=2, padding=0, dilation=1, ceil_mode=False) (fc1): Sequential( (0): Linear(in_features=1024, out_features=384, bias=True) (1): ReLU(inplace) ) (fc2): Linear(in_features=384, out_features=192, bias=True) (fc3): Linear(in_features=192, out_features=10, bias=True) ) # 验证网络结构是否正确， 输入一张 32*32 的图片 # 定义输入为(1, 3, 32, 32)input_demo = Variable(torch.zeros(1, 3, 32, 32))output_demo = alexnet(input_demo)print(output_demo.shape) torch.Size([1, 10])","categories":[{"name":"深度学习","slug":"深度学习","permalink":"http://lucas0625.github.io/blog/categories/深度学习/"}],"tags":[{"name":"PyTorch","slug":"PyTorch","permalink":"http://lucas
…
